cifar_small
1
layer     filters    size              input                output
    0 conv     32  3 x 3 / 1    28 x  28 x   3   ->    28 x  28 x  32  0.001 BFLOPs
    1 max          2 x 2 / 2    28 x  28 x  32   ->    14 x  14 x  32
    2 conv     16  1 x 1 / 1    14 x  14 x  32   ->    14 x  14 x  16  0.000 BFLOPs
    3 conv     64  3 x 3 / 1    14 x  14 x  16   ->    14 x  14 x  64  0.004 BFLOPs
    4 max          2 x 2 / 2    14 x  14 x  64   ->     7 x   7 x  64
    5 conv     32  1 x 1 / 1     7 x   7 x  64   ->     7 x   7 x  32  0.000 BFLOPs
    6 conv    128  3 x 3 / 1     7 x   7 x  32   ->     7 x   7 x 128  0.004 BFLOPs
    7 conv     64  1 x 1 / 1     7 x   7 x 128   ->     7 x   7 x  64  0.001 BFLOPs
    8 conv     10  1 x 1 / 1     7 x   7 x  64   ->     7 x   7 x  10  0.000 BFLOPs
    9 avg                        7 x   7 x  10   ->    10
   10 softmax                                          10
Learning Rate: 0.1, Momentum: 0.9, Decay: 0.0005
50000
32 32
